…
, 'т': 199, 'ä': 82, '·': 151, '¥': 158, '₤': 159, '}': 176, 'd': 13, 'n': 16})
Building model...
Tensor("char_input:0", shape=(?, 40, 16), dtype=int32)
(?, 640)
640
(?, 40, 16, 64)
(?, 40, 16, 64)
(?, 40, 8, 32)
(?, 40, 8, 32)
(?, 40, 4, 16)
40 64 (?, 40, 4, 16)
____________________________________________________________________________________________________
Layer (type)                     Output Shape          Param #     Connected to                     
====================================================================================================
char_input (InputLayer)          (None, 40, 16)        0                                            
____________________________________________________________________________________________________
reshape_1 (Reshape)              (None, 640)           0           char_input[0][0]                 
____________________________________________________________________________________________________
embedding_1 (Embedding)          (None, 640, 64)       13696       reshape_1[0][0]                  
____________________________________________________________________________________________________
reshape_2 (Reshape)              (None, 40, 16, 64)    0           embedding_1[0][0]                
____________________________________________________________________________________________________
conv2d_2 (Conv2D)                (None, 40, 16, 64)    51240       reshape_2[0][0]                  
____________________________________________________________________________________________________
max_pooling2d_1 (MaxPooling2D)   (None, 40, 8, 32)     0           conv2d_2[0][0]                   
____________________________________________________________________________________________________
conv2d_3 (Conv2D)                (None, 40, 8, 32)     25640       max_pooling2d_1[0][0]            
____________________________________________________________________________________________________
word_input (InputLayer)          (None, 40)            0                                            
____________________________________________________________________________________________________
max_pooling2d_2 (MaxPooling2D)   (None, 40, 4, 16)     0           conv2d_3[0][0]                   
____________________________________________________________________________________________________
embedding_2 (Embedding)          (None, 40, 300)       121198500   word_input[0][0]                 
____________________________________________________________________________________________________
reshape_4 (Reshape)              (None, 40, 64)        0           max_pooling2d_2[0][0]            
____________________________________________________________________________________________________
merge_1 (Merge)                  (None, 40, 364)       0           embedding_2[0][0]                
                                                                   reshape_4[0][0]                  
____________________________________________________________________________________________________
batch_normalization_1 (BatchNorm (None, 40, 364)       1456        merge_1[0][0]                    
____________________________________________________________________________________________________
gru_1 (GRU)                      (None, 40, 100)       139500      batch_normalization_1[0][0]      
____________________________________________________________________________________________________
gru_3 (GRU)                      (None, 40, 100)       139500      batch_normalization_1[0][0]      
____________________________________________________________________________________________________
gru_2 (GRU)                      (None, 40, 50)        22650       gru_1[0][0]                      
____________________________________________________________________________________________________
gru_4 (GRU)                      (None, 40, 50)        22650       gru_3[0][0]                      
____________________________________________________________________________________________________
conv2d_1 (Conv2D)                (None, 40, 16, 64)    102440      reshape_2[0][0]                  
____________________________________________________________________________________________________
merge_2 (Merge)                  (None, 40, 100)       0           gru_2[0][0]                      
                                                                   gru_4[0][0]                      
____________________________________________________________________________________________________
average_pooling2d_1 (AveragePool (None, 40, 1, 64)     0           conv2d_1[0][0]                   
____________________________________________________________________________________________________
batch_normalization_2 (BatchNorm (None, 40, 100)       400         merge_2[0][0]                    
____________________________________________________________________________________________________
reshape_3 (Reshape)              (None, 40, 64)        0           average_pooling2d_1[0][0]        
____________________________________________________________________________________________________
merge_3 (Merge)                  (None, 40, 164)       0           batch_normalization_2[0][0]      
                                                                   reshape_3[0][0]                  
____________________________________________________________________________________________________
time_distributed_1 (TimeDistribu (None, 40, 600)       99000       merge_3[0][0]                    
____________________________________________________________________________________________________
time_distributed_2 (TimeDistribu (None, 40, 83)        49883       time_distributed_1[0][0]         
====================================================================================================
Total params: 121,866,555
Trainable params: 667,127
Non-trainable params: 121,199,428
____________________________________________________________________________________________________
Fitting...
Train on 75923 samples, validate on 1121 samples
Epoch 1/10
Epoch 1/10
…
